usecases/snowflake-react/~/chrome-dev-disabled-security/Default/optimization_guide_prediction_model_downloads/c40280e4-c773-4678-8779-7c48f2f3de82/model.tflite (tflite, 67216 bytes, 5 tensors)

dnn/hiddenlayer_1/bias/part_0 f4 [64]
000000 c6 5c b6 3d 0e d1 df 3d 68 08 c1 bb 21 f6 35 bd
       0.08904414 0.10928546 -0.0058908947 -0.04442418
000010 63 e0 e4 bc 15 42 66 bc f2 f3 fb bc 0c 13 95 bd
       -0.027939027 -0.014053841 -0.03075597 -0.072790235
000020 85 b8 a6 bd f5 47 2c 3d 7c b9 bc ba 54 6f e8 3d
       -0.08140663 0.04206081 -0.001439854 0.11349359
000030 ab 00 db 3d e1 79 ac 3c f6 bc 2b bd e5 fb 13 3e
       0.10693487 0.02105421 -0.041928254 0.14451559
000040 34 36 a9 bb 36 15 c9 bc 09 98 45 bd b4 75 88 3c
       -0.005163932 -0.024546247 -0.048240695 0.016657688
000050 14 94 86 bd bc 83 fc bc af 34 57 bd fe 80 97 bd
       -0.065712124 -0.030824535 -0.052540477 -0.0739765
000060 33 9c 91 bd a4 0d 80 bd 5f 8e 10 bc 0c b5 a7 3d
       -0.07109871 -0.06252602 -0.008823006 0.08188829
000070 0a 44 1d bd 44 64 f5 bc 9a 48 48 bd f4 36 ea bd
       -0.038394965 -0.029955037 -0.048897363 -0.11436263
000080 91 4f 27 3d 0e 4b eb 3d 5d 6c fd 3d 2a f7 14 3e
       0.040847365 0.11488925 0.12374184 0.1454741
000090 82 af 47 bd d0 a6 cc 3c d6 e4 94 bd 78 1a c5 bd
       -0.04875136 0.024981886 -0.072702095 -0.09624189
0000a0 36 9f 1c bd 6b a0 2a bc 1c dc 86 bd 2c 3e e9 bb
       -0.038237773 -0.010414223 -0.06584951 -0.007118007
0000b0 38 ce eb bc 65 1c 68 bb b5 88 d7 3d e2 d7 67 3d
       -0.028784856 -0.0035417315 0.10524122 0.056602366
0000c0 cd 9c 81 3d 85 49 4f bd 5b 0f 7f 3c 7b 1c b2 bc
       0.063287355 -0.050607223 0.015567626 -0.021742096
0000d0 bd 07 9f bb 33 5e 98 3d 40 f3 f8 38 b8 0b 14 3d
       -0.0048532174 0.07439842 0.000118708704 0.03614399
0000e0 0c 67 72 3d 46 8f 4f 3d 10 b2 25 bd ce 7c 38 bd
       0.059180304 0.050673746 -0.040453017 -0.045040898
0000f0 7e 3b 43 bc 2a ee 6c 3c 72 65 e5 bc 4e 80 6d ba
       -0.0119160395 0.01446108 -0.028002474 -0.00090599514

dnn/hiddenlayer_0/bias/part_0 f4 [128]
000000 66 46 02 bd fe 00 b8 bc d7 eb 9c 3d 09 c2 0f bd
       -0.03180542 -0.02246141 0.076621704 -0.035097156
000010 96 b2 10 3c 76 6c 2c bd f9 74 d4 bb 24 53 a6 bd
       0.008831641 -0.042095624 -0.006483671 -0.081213266
000020 f4 97 49 bd 39 f8 71 be 6f 39 05 bd 09 0f 52 3d
       -0.04921718 -0.23629846 -0.032525476 0.05128387
000030 ee fd 0a bd 42 0b 91 bc 11 b9 4f 3d 4a 4d 44 3d
       -0.033933572 -0.017705563 0.050713602 0.04792527
000040 10 38 e1 3c 44 84 08 3d 6b 56 8a 3d 87 d2 b9 3b
       0.027492553 0.033329263 0.06754764 0.005670849
000050 42 06 9a bc 9c 67 a6 3d db b6 07 bc 49 58 8c bd
       -0.018801812 0.08125231 -0.008283342 -0.068527766
000060 3a bc 52 3b 55 7e 29 3a c5 a5 0d 3c a4 03 73 3d
       0.0032155649 0.00064656633 0.00864548 0.059329644
000070 1d 40 ea 3c d0 56 c4 bc 61 75 c4 3c 00 ee d9 bc
       0.028595025 -0.023967177 0.023981752 -0.026602745
000080 60 b5 a5 bc 7b eb d5 bc e3 c8 a2 3c 94 55 ca bc
       -0.020228088 -0.026113262 0.01987118 -0.02469901
000090 1b 41 22 3d 14 7c 0e 3e 5c 61 4e 3d 22 c1 b8 bc
       0.03961287 0.1391452 0.050385818 -0.02255303
0000a0 40 80 0c be ba a4 5a 3c 4c 33 a4 bb 15 fb 63 3d
       -0.13720798 0.013344938 -0.005010998 0.055659372
0000b0 19 d3 ae b8 91 8d a5 bd 40 bc 78 bc 41 af 32 bd
       -8.3362866e-05 -0.08083642 -0.015181601 -0.043624166
0000c0 dd 83 58 bc 41 25 67 bd 4e e1 99 bb 0f e0 a5 3c
       -0.013215032 -0.056432012 -0.004696048 0.020248441
0000d0 02 b3 5b 3d fe d3 84 bc 62 d0 e2 3c 54 3d 89 bd
       0.053637512 -0.016214367 0.027687255 -0.067011505
0000e0 dc 82 98 bb 92 f0 05 bd d7 8f 4c 3d 25 32 b0 3d
       -0.0046542715 -0.03270013 0.049941864 0.08603314
0000f0 8c 34 b6 bc fa 13 cd bd b5 9b 97 3d b8 c3 1c 3d
       -0.022241853 -0.10013576 0.07402746 0.03827259
000100 15 7e 9b bb e6 84 d0 3b b1 73 8a 3d 84 a3 02 3d
       -0.0047452548 0.006363499 0.06760348 0.031894222
000110 a0 9a db 3c c5 2a 7a bc 89 8b 07 3d fb 11 2d 3d
       0.02680713 -0.015268986 0.033092055 0.042253476
000120 67 94 32 3d c0 87 82 bd ff fe 3f 3d 8f 20 0b bd
       0.04359856 -0.063735485 0.046874043 -0.033966597
000130 21 f2 a6 bd ac 75 a2 bc b1 80 ab bc 3c c9 c2 3b
       -0.08151651 -0.019831501 -0.020935388 0.005944399
000140 bc 34 37 3d 45 bf 94 3d dc 0c 14 be 46 65 7e bd
       0.044728026 0.07263044 -0.1445803 -0.0621083
000150 98 bf ca 3b f2 e7 21 3d f9 90 6a bd da 44 9d bd
       0.0061873905 0.03952784 -0.057267163 -0.07679148
000160 30 fb 11 3c 46 73 ee 3c c1 9b ca 3d 61 5c 40 bc
       0.008909985 0.029107701 0.09892989 -0.011740775
000170 6a ab a2 3c 80 e3 16 bd 6e 2c a7 bc b1 1d 09 bd
       0.019857127 -0.036838055 -0.020406928 -0.03347558
000180 0e 12 eb 3d ea c6 e2 3c cf 4f 84 bd 7a 8e a5 bd
       0.11478053 0.02768274 -0.06460535 -0.08083816
000190 f5 3d cf bc 53 39 f8 39 51 e9 d0 3c a8 93 a3 bd
       -0.025298098 0.00047344956 0.025501879 -0.079871476
0001a0 5c d9 3c bc 14 d8 df bc c6 ba 75 3c d6 9f b1 3d
       -0.011526432 -0.027324714 0.014998144 0.086730644
0001b0 4e 3f a8 bd 3a 1e f8 3d 0a fa 54 3c e5 48 ac 3d
       -0.082151994 0.1211514 0.012999067 0.08412341
0001c0 f5 ba bb 3c 16 cf 2e bd 55 ee b8 bc 90 66 5a 3a
       0.022916296 -0.04267796 -0.022574583 0.0008331323
0001d0 87 fa 1f bc 10 2e 37 bc b4 41 36 3d 92 34 b4 bb
       -0.00976432 -0.011180416 0.044496253 -0.005499431
0001e0 1a 31 5f bb b2 d2 57 3c c4 b7 16 be c2 e6 61 bd
       -0.0034056366 0.013172792 -0.14718539 -0.05515171
0001f0 7c e8 ea 3c 86 13 c4 3d f8 f9 24 bc 57 19 41 bd
       0.02867531 0.09574036 -0.010069363 -0.047143307

dnn/hiddenlayer_0/MatMul f4 [128, 12]
000000 05 4d 2f be 25 e8 a3 bd 15 3f d1 3d be 3a eb 3d
       -0.17119224 -0.080032624 0.1021711 0.114858136
000010 f4 fb 3e bd df 5f 05 3e 9e 6b 43 3d 4b 8e 3c 3c
       -0.046627 0.13024853 0.047710054 0.011508535
000020 50 f1 75 bd a5 d3 d8 bd cb 81 3d be 2e 8b e9 3d
       -0.060044587 -0.10587243 -0.18506543 0.114034995
000030 f2 bf 92 bd 7f 90 80 3b ed b7 0d 3e ae a0 5b 3d
       -0.07165517 0.0039234753 0.13839693 0.053620033
000040 4d 8c 10 3e c7 ea 85 bd 36 44 4c bd 11 cf 04 be
       0.1411602 -0.06538921 -0.04986974 -0.12969615
000050 82 fa 99 bd 73 10 de bd 53 33 8a 3d c0 03 4d 3e
       -0.07518484 -0.10842981 0.067480706 0.20020962
000060 3e 2e 8f 3d 48 d9 e7 bd 51 04 12 be c9 f3 98 3d
       0.06991242 -0.1132074 -0.14259459 0.07468373
000070 1a ab 24 be b0 97 71 bd 8b 41 8b 3b 2a ab 2c be
       -0.16080895 -0.05898255 0.0042497567 -0.16862169
000080 29 8e fb 3d 91 1f 63 bd 59 61 eb bd ad 72 58 be
       0.12282974 -0.055450026 -0.11493177 -0.21137495
000090 7e a1 68 bd 2c 8b 74 3d d9 61 3b 3e 75 b2 50 bd
       -0.056794636 0.059703037 0.18299045 -0.05095144
0000a0 89 ed aa 3d 2b 31 24 bd 39 fb 34 3e d7 21 09 3e
       0.083460875 -0.040085953 0.17673959 0.13391815
0000b0 7e 87 1c bb a2 cd 4f 3e 72 7a 8a 3c 6f 6a 63 bd
       -0.002388447 0.20293286 0.01690409 -0.055521425
0000c0 93 3e 4e bd 34 24 22 3e 6a 0e ee bb d6 86 9b 3d
       -0.050352644 0.15834123 -0.007264902 0.07594077
0000d0 58 b5 d2 bd 94 21 26 be f6 3e 25 be 4c 02 b0 bd
       -0.10288495 -0.16223747 -0.16137299 -0.08594188
0000e0 16 29 49 bc 8f e7 00 be 3a 69 0d 3e b6 eb 1f be
       -0.012277862 -0.12588333 0.13809672 -0.1561726
0000f0 40 8f 3d be e8 ca 6d 3d ee d3 5d 3d 7f 29 06 3e
       -0.18511677 0.058054835 0.05415719 0.13101767
000100 e1 99 ad bc 20 de 0b be bb c2 18 3e 55 e7 0a be
       -0.02119154 -0.13658953 0.14918034 -0.13564809
000110 87 c6 3f 3e 82 05 7a bd 56 bf 05 3e 8e bd 95 bc
       0.18728076 -0.06104041 0.1306127 -0.018278863
000120 98 3f 95 be 42 90 11 3e bc 3d 3b bd 86 b5 d2 3d
       -0.2915008 0.14215186 -0.04571317 0.10288529
000130 e5 81 de bd ee 7b f8 3d a9 5d 09 bd df 05 10 3d
       -0.10864619 0.12133013 -0.033536587 0.03516185
000140 c1 3b 4b 3d f3 9e 53 3d e3 29 c7 bd 86 47 12 3e
       0.049617533 0.051665258 -0.09724786 0.14285097
000150 fd 1a 14 bd a1 6b 51 bd 55 ec 52 be ad ac dd 3d
       -0.03615855 -0.051128034 -0.20597966 0.10823951
000160 f0 aa 12 3e c3 f9 63 3d c7 eb bc bc bd 86 6b bd
       0.1432302 0.055658113 -0.023061646 -0.057501543
000170 73 4e c6 3c 33 91 11 3e 85 a1 dd bc f4 73 89 bd
       0.02420733 0.14215545 -0.027054558 -0.067115694
000180 e1 56 36 bd 81 df 01 be 20 6e a1 bd 19 75 8d bd
       -0.044516448 -0.12682916 -0.07882333 -0.069071
000190 2c 85 97 bd 74 a9 71 3b 14 1e 41 be 7a 6b 8a 3d
       -0.073984474 0.0036874684 -0.1885913 0.06758781
0001a0 82 d3 f9 bc ef 41 86 be 72 71 45 be cc 3b 05 be
       -0.030496363 -0.26222178 -0.19281557 -0.13011092
0001b0 41 ec 74 3d da 49 e4 3c 25 df 8d be 91 82 4f 3e
       0.05979562 0.027867246 -0.27709308 0.20264651
0001c0 72 f2 dd bc 8d 0c da 3c 17 3f 6f be 0a 4e 22 bc
       -0.027093146 0.026617313 -0.2336391 -0.009906301
0001d0 81 35 92 38 25 b5 16 bd 1e db 4d bc d4 4a 39 be
       6.9717884e-05 -0.036793847 -0.012564449 -0.18094951
0001e0 1e b8 11 3d a2 e8 70 be 80 f7 15 be 17 c2 d0 3d
       0.03557598 -0.23526242 -0.14645195 0.1019327
0001f0 36 ed 75 bd 1c fa 06 3e cb 98 9c 3d d7 06 af bd
       -0.060040675 0.13181347 0.076463304 -0.085462265
000200 32 57 5c be c5 7f 35 3e 3f 76 3d bc 71 9c f9 3d
       -0.21517637 0.17724521 -0.011563837 0.12188042
000210 39 3a 9a 3d 08 a9 ad 3d ab 4f a6 3b da 6e 03 3e
       0.07530636 0.08479506 0.005075415 0.12835255
000220 86 c8 38 3e 87 c7 24 3e e6 d6 4d be 05 f3 5e 3c
       0.18045244 0.16091739 -0.20101508 0.013607745
000230 78 91 2a 3e 1c 1e dc 3d 97 03 1b 3e 54 28 10 3e
       0.16657054 0.107479304 0.15138088 0.14077884
000240 a3 c6 c0 bd 5a da bb 3c a1 ff a6 bb 27 ad 75 3d
       -0.09412887 0.022931267 -0.0050963913 0.059979584
000250 2b 5c d6 bd 4f 2c ae bd b5 58 07 be f8 6d a8 3c
       -0.104667984 -0.08504545 -0.13217433 0.02056025
000260 f5 10 75 bd 39 85 34 be 60 5d cd 3c 74 25 e5 3d
       -0.059830625 -0.17628945 0.025068939 0.11188784
000270 b6 b1 fd bd 5f 83 c8 ba 4b 89 93 3d 22 85 05 3b
       -0.12387411 -0.0015297941 0.07203921 0.0020373543
000280 d3 b1 84 bd 05 c1 30 bd 86 eb da bd 6d 93 e4 3d
       -0.0647923 -0.043152828 -0.10689454 0.11160932
000290 93 1f 29 be d0 fb 02 be a4 10 45 3e 48 83 20 be
       -0.16515951 -0.12791371 0.19244629 -0.1567508
0002a0 21 76 19 be a2 06 34 be 9c 31 b7 bd ec 71 44 3e
       -0.14986469 -0.17580655 -0.08945009 0.19184083
0002b0 14 99 87 bd 8e ed 5c bd aa 39 4e 3e e8 ff 18 3e
       -0.06620994 -0.053937487 0.20139185 0.1494137
0002c0 ab 2b 04 bc 89 68 55 3e b5 17 08 be fb 69 0c 3d
       -0.008067052 0.20840658 -0.13290294 0.03428076
0002d0 8d a1 19 bd 7d 9b 47 3d 2e a0 56 be dc 5b 6f bd
       -0.037507582 0.04873227 -0.20959541 -0.058437213
0002e0 fd bf 18 3d dd 68 08 be d5 1f e5 bd 6a 6d 1b bd
       0.03729247 -0.13321252 -0.11187712 -0.037946142
0002f0 9f c3 35 3e d7 67 cc bd f5 94 21 be 08 12 6e 3e
       0.17750405 -0.099807434 -0.15779479 0.23249066
000300 20 27 1f be f6 74 17 bd 25 e6 0f 3e 24 fc a9 bd
       -0.15542269 -0.036976777 0.14052637 -0.08300045
000310 20 6d ad 3b f0 ff f3 3a 8e 14 b7 bd b8 9f 4b be
       0.0052925497 0.0018615704 -0.08939467 -0.19885147
000320 21 90 2f 3e e4 4a 1c be e8 4c 35 bd bd 5c 21 3c
       0.17144825 -0.15262944 -0.044262797 0.009848771
000330 d6 7d 56 3e 2c 2b 5f bd 31 28 2a be 30 90 05 be
       0.2094644 -0.05448453 -0.16616894 -0.13043284
000340 8b 0b c4 bd 89 f1 15 3e b3 da 65 3d 69 33 67 be
       -0.09572514 0.1464292 0.05611677 -0.22578205
000350 e7 65 14 3d 30 7f 58 bd 9f 69 1d 3e 36 55 52 be
       0.036229994 -0.05285567 0.15372322 -0.20540318
000360 f6 75 fa bd de 99 fb 3d 2b 0e d6 bc 50 a2 05 be
       -0.122295305 0.12285207 -0.026129803 -0.13050199
000370 cd 4c 40 bc 0b 6f 63 3d 40 cf 02 3c 08 74 12 3d
       -0.011737061 0.05552582 0.007983983 0.035755187
000380 3a f2 8b 3d 38 62 18 3e 62 b3 3f 3d 73 c3 8f 3e
       0.068333104 0.14881217 0.046801932 0.28078803
000390 de 4a 1f be 20 1a 29 3d 0f 9f 72 bd f3 20 3e 3e
       -0.15555903 0.04128468 -0.05923372 0.18567257
0003a0 d5 7d 47 3e b9 8b 13 bd a4 92 92 bb 38 e2 7a 3d
       0.19481595 -0.03602192 -0.0044730473 0.061250895
0003b0 1e b7 1f 3e 9a 83 59 bd 5c dc 1a be 2f 3f 5d be
       0.15597197 -0.05310402 -0.15123123 -0.21606134
0003c0 b1 c6 be bd 30 f3 43 be 9a 06 46 3e 5a d7 06 be
       -0.09315241 -0.19135737 0.19338456 -0.13168088
0003d0 79 fb b0 bc 46 d9 73 be 1e d5 df bd 54 92 87 3d
       -0.021604287 -0.23813352 -0.10929321 0.06619707
0003e0 24 c5 42 3e 1f 92 08 be 5a 33 0a be be f3 73 3c
       0.19020516 -0.13336991 -0.13496152 0.014889656
0003f0 4a 1f 3a 3e f1 4f 28 3e a9 01 39 3d c1 ba 2d 3e
       0.18175998 0.16436745 0.0451676 0.16965772

dnn/hiddenlayer_1/MatMul f4 [64, 128]
000000 4a 17 29 3e 06 b0 8f 3d bc 39 dc bd 0f 75 dc bd
       0.1651279 0.07015996 -0.107531995 -0.10764515
000010 7f 01 7e bd 42 d7 33 3e 52 73 3a bd 60 25 cb 3d
       -0.062013146 0.17562583 -0.045520134 0.09919238
000020 43 f8 78 3d cd 3c 83 be 9d 90 05 3e 1d 5a 13 be
       0.060783636 -0.25632325 0.13043447 -0.14389844
000030 e6 e7 0b be eb ec f4 3d 05 8d 9e bd 23 4b af 3b
       -0.13662681 0.11959251 -0.07741741 0.005349533
000040 3e 64 f5 3c 57 c1 ef bd 08 03 75 3d b3 54 f5 3d
       0.029955026 -0.117067985 0.059817344 0.11979046
000050 63 77 c2 bd 3f fb 71 3c 9b 77 f6 bd 99 cb 08 be
       -0.094954275 0.014769374 -0.12034532 -0.13358916
000060 9e 90 41 be 04 bc f2 bd fa 6d cc bd 83 69 ab 3d
       -0.18902823 -0.118522674 -0.09981914 0.08369734
000070 86 31 bc bd 76 99 bd 3d f8 16 48 bc 79 85 b7 bd
       -0.09189133 0.09257786 -0.012212507 -0.08961005
000080 f5 82 e8 3c c1 fa f7 bd 76 1c 21 3d 08 57 a7 bc
       0.028382758 -0.121083744 0.039333783 -0.020427242
000090 e8 fc a5 bc ca 74 b3 3d b9 58 86 bd 62 23 b9 bd
       -0.020262197 0.0876251 -0.06559891 -0.09039952
0000a0 17 73 dd bd 6d 42 21 be ea 6d 94 bc c0 a8 3b be
       -0.10812967 -0.15747996 -0.018118817 -0.18326092
0000b0 a0 de 82 bd e3 0d 14 be 34 1a 26 3e 89 ef fe 3d
       -0.063901186 -0.14458422 0.16220933 0.124480315
0000c0 1c 00 ac bc c0 08 9e 3d a5 7f c5 bd ef a1 28 bc
       -0.020996146 0.07716513 -0.09643487 -0.010292514
0000d0 d2 c9 36 3d 33 ec 14 be a1 fc 90 3d 80 a0 ac 3d
       0.044626065 -0.14543228 0.07079435 0.084290504
0000e0 ac 74 3b bd 3c c6 1b 3e c7 9a fd bd c4 36 b7 3d
       -0.045765564 0.15212339 -0.12383037 0.089459926
0000f0 0d 0c 1b be 6a 82 d4 bd 10 92 b8 bd 13 a0 f0 3d
       -0.15141316 -0.10376437 -0.09012234 0.11749282
000100 cc dc 71 3d 04 68 1e 3e 5a 9d 8b 3d 51 52 9f 3d
       0.05904846 0.15469366 0.06817122 0.077793725
000110 3a 2b 68 3d 2d a3 93 bd c1 3e 4d be fd b1 c1 3d
       0.05668185 -0.07208858 -0.2004347 0.09457777
000120 fb 4b 41 be 65 5f 20 3d 35 57 27 be ba 57 8a bd
       -0.1887664 0.039153475 -0.1634186 -0.06755014
000130 f8 e3 98 3d 82 28 2d 3e 3c 9f ef bc 5e c5 e0 bd
       0.074653566 0.16909984 -0.029250734 -0.10975145
000140 86 9e c4 bc 4b 9c 96 3d 12 69 64 be 36 39 3e be
       -0.024001371 0.07354029 -0.22305706 -0.18576512
000150 cc 2d 46 3e ff 6f 1f 3e 90 b4 05 be da 03 54 be
       0.19353408 0.15570067 -0.1305716 -0.20704594
000160 ac 0d 43 be 22 6b 0c 3d 1c 67 43 bc eb fd 06 3e
       -0.19048184 0.034281857 -0.011926439 0.131828
000170 91 cc ff bc 58 14 13 be 58 5b b1 3c 73 82 3c bd
       -0.031225475 -0.1436323 0.021650001 -0.046022844
000180 90 6b 7c 3d 88 1f e3 bd af ab 05 be 6f 64 10 be
       0.061626017 -0.110899985 -0.13053773 -0.14100812
000190 90 e1 e7 3c 71 bf 9b bd 92 a1 26 3e 70 65 15 be
       0.028305799 -0.07604874 0.16272572 -0.14589477
0001a0 4f 01 2a bd 55 50 31 be e7 8c 7a bb cc ab 9b 3d
       -0.041505154 -0.173158 -0.0038230957 0.07601127
0001b0 07 72 f8 bd 8b f8 33 bd 4f c2 4d 3d ad 8e 72 3d
       -0.12131124 -0.0439382 0.050234135 0.059218097
0001c0 21 82 c5 bd 0c ea 99 3d d4 91 de bd ee 95 19 3e
       -0.09643961 0.07515344 -0.10867658 0.149986
0001d0 f9 be df bd bd 7e 19 bc 45 0b 98 bd 03 27 85 bd
       -0.10925097 -0.009368596 -0.074240245 -0.065015815
0001e0 3e e7 79 3d 7b f2 4a be e5 ff 42 bd 3f 04 6a bd
       0.061011545 -0.19819061 -0.04760732 -0.057132956
0001f0 c2 a3 a4 39 f8 1b 25 3e 5d 57 b2 3d 0d 4f 2b 3c
       0.00031402527 0.1612395 0.087080695 0.010455859
000200 78 53 18 bb c9 6d b3 3d 27 e9 8a 3d a6 29 dc 3d
       -0.002324311 0.08761174 0.067827515 0.10750131
000210 2d 49 5f bd dd 99 05 be 4e 39 91 3a a3 7d ce 3b
       -0.054513145 -0.13046975 0.00110797 0.006301598
000220 b0 ef 87 bc 41 28 bf 3d 09 d8 b7 3b c0 2a 24 3e
       -0.016593784 0.0933385 0.00561047 0.16031933
000230 dd a3 c1 3c 33 17 1c be 80 2e f0 3d de f0 06 3e
       0.023637706 -0.15243225 0.11727619 0.13177821
000240 6f 36 02 3d 56 35 c4 bc 39 1b c1 3d f0 d6 ec 3d
       0.031790193 -0.023951214 0.094290204 0.115644336
000250 62 c6 8f 3c db 81 20 3d c8 ae a2 3d 51 1c 30 be
       0.017550651 0.03918634 0.07943493 -0.17198302
000260 e3 ea 0b bd fb 11 1a 3e b2 f3 1d bd 27 dd 9e 3d
       -0.034159552 0.15045922 -0.038562484 0.07757025
000270 62 79 2e be 3e d1 16 be 51 9e bc 3d 63 ab ea 3c
       -0.17038491 -0.14728257 0.09209884 0.028646177
000280 51 4b 35 bb af 21 68 3d af 3f f0 3d 00 a3 0a be
       -0.00276633 0.05667275 0.11730897 -0.13538742
000290 4f 50 d3 3a 3d 8b 0e 3e 53 62 4b bd cc a2 d9 bc
       0.0016121956 0.13920303 -0.049654316 -0.026566885
0002a0 9e 5a e4 3d 6f 74 3a bd 52 e1 77 3c c1 de 18 3e
       0.11150096 -0.045521196 0.015129404 0.14928724
0002b0 ce 01 0c 3e 35 a6 e8 3d 81 e9 97 3c 91 0d 55 3d
       0.13672563 0.113598265 0.01854396 0.05201489
0002c0 55 4c 27 3e 24 7a 4b 3e 44 bf 8f 3d 04 03 da bd
       0.16337712 0.19870812 0.07018903 -0.106451064
0002d0 05 f2 e6 bd 9d 1b 81 3c fc fa 70 bd 26 14 03 be
       -0.1127663 0.015760237 -0.058833107 -0.12800655
0002e0 12 00 e9 bd 4e a0 d5 bd 1e a0 5f bd 28 9a 14 3e
       -0.113769665 -0.10430966 -0.05459606 0.14511931
0002f0 d5 38 bc 3d 65 4b 06 be 4c 6d b2 bd 52 d7 d5 3d
       0.09190527 -0.13114698 -0.08712253 0.1044146
000300 1b a8 9f bd 81 02 8b bd 27 ca 9f bd 94 38 06 3e
       -0.077957354 -0.06787587 -0.078022294 0.1310752
000310 6d eb 74 3d 34 5d 3f 3e c6 87 fa 3d d4 04 51 b9
       0.059794832 0.18687898 0.12232928 -0.00019933592
000320 4e 91 46 3e 46 b6 c4 3d bd 7e 2e 3e 9c 86 4a be
       0.19391367 0.096050784 0.17040534 -0.19777912
000330 1c 42 ef bd ba 6d 7e bd 48 9d 2f 3e e9 45 ff bc
       -0.11682531 -0.062116362 0.17149842 -0.031161265
000340 53 bc 48 bd a7 94 98 3c 63 e9 9b 3d 26 57 40 3e
       -0.049007725 0.01862557 0.07612874 0.18783244
000350 50 6f b3 bc 8c 0f 58 ba 2e 09 05 be 87 ac f9 3d
       -0.021903664 -0.0008242063 -0.12991783 0.1219111
000360 fc 33 24 3e 97 77 05 3e f0 37 f6 3a 62 0e 00 3e
       0.16035455 0.13033901 0.0018784981 0.12505487
000370 e2 ae 48 bd 90 b1 26 be 9c 2e 4c 3e 48 0b b3 3c
       -0.048994906 -0.16278672 0.19939655 0.021855965
000380 10 c5 c8 bb 10 76 2e 3e 99 2f 8c bd b0 bb a3 3d
       -0.0061270073 0.17037225 -0.06845016 0.07994783
000390 4f 00 27 3e 80 80 98 3d c9 97 a4 3b 99 50 16 3e
       0.16308711 0.074463844 0.005022977 0.14679183
0003a0 88 ba bc 3d 5e 62 04 be 2b 7f 0c 3e a3 54 26 bd
       0.092152655 -0.12928149 0.13720386 -0.04060806
0003b0 ff b6 df 3d fe a1 0c 3d 94 6b 2a bd 3b 7d d2 bd
       0.109235756 0.034334175 -0.0416065 -0.10277792
0003c0 2a c9 16 bd 7b 06 16 3e 23 e1 56 be 35 b9 99 3d
       -0.03681294 0.1465091 -0.2098432 0.075060286
0003d0 7e 66 15 be 48 54 d1 3d 34 3e 36 bd 98 db 25 be
       -0.14589879 0.102211535 -0.044492915 -0.1619705
0003e0 17 87 de bd a6 a7 22 bd 6d e3 eb bc e3 9b 06 3e
       -0.1086561 -0.039710663 -0.028794969 0.13145404
0003f0 dd 94 e3 bd 74 15 ba 3d 13 1c d6 3d 14 eb 61 bd
       -0.11112378 0.09086123 0.104545735 -0.05515583

dnn/logits/MatMul f4 [1, 64]
000000 4c 3f b9 3e 90 db 92 3e f0 ea f7 bd e4 1d 7f be
       0.36181104 0.28683138 -0.12105358 -0.24913746
000010 d4 6d b3 3d 41 3e cb be 9b c3 e0 bd 43 ca 51 be
       0.087611824 -0.39695933 -0.10974809 -0.20487313
000020 79 db 80 be bd 3c c2 3e 08 fd 98 be 7d 9b d8 3e
       -0.25167444 0.37936965 -0.29880548 0.42306128
000030 87 0a d0 3e e6 2b cb 3d 58 2b c5 be 7d 55 b2 3e
       0.40633032 0.09920482 -0.3850963 0.34830847
000040 22 f8 0c 3e 46 a8 97 be 02 b7 93 be 74 0c 6e 3e
       0.1376653 -0.2962057 -0.2885056 0.23246938
000050 78 f7 8a 3d 5f b7 bd be fe 38 2e 3e f7 70 af be
       0.06785482 -0.37053964 0.17013928 -0.34265873
000060 c4 00 68 be 6c 8d 48 be c2 99 84 be 1b c8 5e 3e
       -0.22656542 -0.19585198 -0.25898558 0.21756022
000070 9e 1a 12 be 4e 84 c7 3d e9 92 0f be 7c 20 c5 3e
       -0.14267966 0.09742032 -0.14020886 0.38501346
000080 de 37 6b 3e b4 e3 a6 3e 00 0b c9 3e 2c c5 c0 3e
       0.2297053 0.325956 0.39266205 0.3765043
000090 2e b8 3d be 0f a0 71 be 40 52 ad be 32 ae b8 3e
       -0.1852729 -0.23596214 -0.33851814 0.360704
0000a0 61 52 40 be fc cc 42 3c 9d 1d 1c be d1 bf 95 be
       -0.18781425 0.011889692 -0.15245672 -0.29247907
0000b0 ed 2c 1f 3e 0f de 41 be 3f 2f c9 3e 5f d3 ee 3d
       0.15544482 -0.18932365 0.39293858 0.116614096
0000c0 f7 81 8c 3e 7c ff 8d bd 7b 5d cc 3e 37 01 97 3b
       0.27442905 -0.069334954 0.3991507 0.004608299
0000d0 ad 54 9f 3b b0 d3 2a 3e 55 68 c8 be 88 71 f9 3d
       0.004862389 0.16682315 -0.391421 0.121798575
0000e0 88 b3 fe 3d e2 2a b7 3d 9f 41 32 3d 1b c8 09 3e
       0.124365866 0.08943726 0.043519612 0.1345524
0000f0 90 60 3a 3e ed ed 8e 3e c1 51 c8 be ce 88 48 3d
       0.18200898 0.27915898 -0.39124873 0.048958592
